…
class_indices: [68, 56, 78, 8, 23, 84, 90, 65, 74, 76, 40, 89, 3, 92, 55, 9, 26, 80, 43, 38, 58, 70, 77, 1, 85, 19, 17, 50, 28, 53, 13, 81, 45, 82, 6, 59, 83, 16, 15, 44, 91, 41, 72, 60, 79, 52, 20, 10, 31, 54, 37, 95, 14, 71, 96, 98, 97, 2, 64, 66, 42, 22, 35, 86, 24, 34, 87, 21, 99, 0, 88, 27, 18, 94, 11, 12, 47, 25, 30, 46, 62, 69, 36, 61, 7, 63, 75, 5, 32, 4, 51, 48, 73, 93, 39, 67, 29, 49, 57, 33]
[(0, 10), (1, 10), (2, 10), (3, 10), (4, 10), (5, 10), (6, 10), (7, 10), (8, 10), (9, 10)]
************************************************************************************************************
Task  0
************************************************************************************************************
LLL_Net(
  (model): ResNet50_32(
    (features): Sequential(
      (0): Conv2d(3, 64, kernel_size=(3, 3), stride=(1, 1), padding=(1, 1), bias=False)
      (1): BatchNorm2d(64, eps=1e-05, momentum=0.1, affine=True, track_running_stats=True)
      (2): LeakyReLU(negative_slope=0.01, inplace=True)
      (3): Sequential(
        (0): BottleNeck(
          (residual_function): Sequential(
            (0): Conv2d(64, 64, kernel_size=(1, 1), stride=(1, 1), bias=False)
            (1): BatchNorm2d(64, eps=1e-05, momentum=0.1, affine=True, track_running_stats=True)
            (2): LeakyReLU(negative_slope=0.01, inplace=True)
            (3): Conv2d(64, 64, kernel_size=(3, 3), stride=(1, 1), padding=(1, 1), bias=False)
            (4): BatchNorm2d(64, eps=1e-05, momentum=0.1, affine=True, track_running_stats=True)
            (5): LeakyReLU(negative_slope=0.01, inplace=True)
            (6): Conv2d(64, 128, kernel_size=(1, 1), stride=(1, 1), bias=False)
            (7): BatchNorm2d(128, eps=1e-05, momentum=0.1, affine=True, track_running_stats=True)
          )
          (shortcut): Sequential(
            (0): Conv2d(64, 128, kernel_size=(1, 1), stride=(1, 1), bias=False)
            (1): BatchNorm2d(128, eps=1e-05, momentum=0.1, affine=True, track_running_stats=True)
          )
        )
        (1): BottleNeck(
          (residual_function): Sequential(
            (0): Conv2d(128, 64, kernel_size=(1, 1), stride=(1, 1), bias=False)
            (1): BatchNorm2d(64, eps=1e-05, momentum=0.1, affine=True, track_running_stats=True)
            (2): LeakyReLU(negative_slope=0.01, inplace=True)
            (3): Conv2d(64, 64, kernel_size=(3, 3), stride=(1, 1), padding=(1, 1), bias=False)
            (4): BatchNorm2d(64, eps=1e-05, momentum=0.1, affine=True, track_running_stats=True)
            (5): LeakyReLU(negative_slope=0.01, inplace=True)
            (6): Conv2d(64, 128, kernel_size=(1, 1), stride=(1, 1), bias=False)
            (7): BatchNorm2d(128, eps=1e-05, momentum=0.1, affine=True, track_running_stats=True)
          )
          (shortcut): Sequential()
        )
        (2): BottleNeck(
          (residual_function): Sequential(
            (0): Conv2d(128, 64, kernel_size=(1, 1), stride=(1, 1), bias=False)
            (1): BatchNorm2d(64, eps=1e-05, momentum=0.1, affine=True, track_running_stats=True)
            (2): LeakyReLU(negative_slope=0.01, inplace=True)
            (3): Conv2d(64, 64, kernel_size=(3, 3), stride=(1, 1), padding=(1, 1), bias=False)
            (4): BatchNorm2d(64, eps=1e-05, momentum=0.1, affine=True, track_running_stats=True)
            (5): LeakyReLU(negative_slope=0.01, inplace=True)
            (6): Conv2d(64, 128, kernel_size=(1, 1), stride=(1, 1), bias=False)
            (7): BatchNorm2d(128, eps=1e-05, momentum=0.1, affine=True, track_running_stats=True)
          )
          (shortcut): Sequential()
        )
      )
      (4): Sequential(
        (0): BottleNeck(
          (residual_function): Sequential(
            (0): Conv2d(128, 128, kernel_size=(1, 1), stride=(1, 1), bias=False)
            (1): BatchNorm2d(128, eps=1e-05, momentum=0.1, affine=True, track_running_stats=True)
            (2): LeakyReLU(negative_slope=0.01, inplace=True)
            (3): Conv2d(128, 128, kernel_size=(3, 3), stride=(2, 2), padding=(1, 1), bias=False)
            (4): BatchNorm2d(128, eps=1e-05, momentum=0.1, affine=True, track_running_stats=True)
            (5): LeakyReLU(negative_slope=0.01, inplace=True)
            (6): Conv2d(128, 256, kernel_size=(1, 1), stride=(1, 1), bias=False)
            (7): BatchNorm2d(256, eps=1e-05, momentum=0.1, affine=True, track_running_stats=True)
          )
          (shortcut): Sequential(
            (0): Conv2d(128, 256, kernel_size=(1, 1), stride=(2, 2), bias=False)
            (1): BatchNorm2d(256, eps=1e-05, momentum=0.1, affine=True, track_running_stats=True)
          )
        )
        (1): BottleNeck(
          (residual_function): Sequential(
            (0): Conv2d(256, 128, kernel_size=(1, 1), stride=(1, 1), bias=False)
            (1): BatchNorm2d(128, eps=1e-05, momentum=0.1, affine=True, track_running_stats=True)
            (2): LeakyReLU(negative_slope=0.01, inplace=True)
            (3): Conv2d(128, 128, kernel_size=(3, 3), stride=(1, 1), padding=(1, 1), bias=False)
            (4): BatchNorm2d(128, eps=1e-05, momentum=0.1, affine=True, track_running_stats=True)
            (5): LeakyReLU(negative_slope=0.01, inplace=True)
            (6): Conv2d(128, 256, kernel_size=(1, 1), stride=(1, 1), bias=False)
            (7): BatchNorm2d(256, eps=1e-05, momentum=0.1, affine=True, track_running_stats=True)
          )
          (shortcut): Sequential()
        )
        (2): BottleNeck(
          (residual_function): Sequential(
            (0): Conv2d(256, 128, kernel_size=(1, 1), stride=(1, 1), bias=False)
            (1): BatchNorm2d(128, eps=1e-05, momentum=0.1, affine=True, track_running_stats=True)
            (2): LeakyReLU(negative_slope=0.01, inplace=True)
            (3): Conv2d(128, 128, kernel_size=(3, 3), stride=(1, 1), padding=(1, 1), bias=False)
            (4): BatchNorm2d(128, eps=1e-05, momentum=0.1, affine=True, track_running_stats=True)
            (5): LeakyReLU(negative_slope=0.01, inplace=True)
            (6): Conv2d(128, 256, kernel_size=(1, 1), stride=(1, 1), bias=False)
            (7): BatchNorm2d(256, eps=1e-05, momentum=0.1, affine=True, track_running_stats=True)
          )
          (shortcut): Sequential()
        )
        (3): BottleNeck(
          (residual_function): Sequential(
            (0): Conv2d(256, 128, kernel_size=(1, 1), stride=(1, 1), bias=False)
            (1): BatchNorm2d(128, eps=1e-05, momentum=0.1, affine=True, track_running_stats=True)
            (2): LeakyReLU(negative_slope=0.01, inplace=True)
            (3): Conv2d(128, 128, kernel_size=(3, 3), stride=(1, 1), padding=(1, 1), bias=False)
            (4): BatchNorm2d(128, eps=1e-05, momentum=0.1, affine=True, track_running_stats=True)
            (5): LeakyReLU(negative_slope=0.01, inplace=True)
            (6): Conv2d(128, 256, kernel_size=(1, 1), stride=(1, 1), bias=False)
            (7): BatchNorm2d(256, eps=1e-05, momentum=0.1, affine=True, track_running_stats=True)
          )
          (shortcut): Sequential()
        )
      )
      (5): Sequential(
        (0): BottleNeck(
          (residual_function): Sequential(
            (0): Conv2d(256, 256, kernel_size=(1, 1), stride=(1, 1), bias=False)
            (1): BatchNorm2d(256, eps=1e-05, momentum=0.1, affine=True, track_running_stats=True)
            (2): LeakyReLU(negative_slope=0.01, inplace=True)
            (3): Conv2d(256, 256, kernel_size=(3, 3), stride=(2, 2), padding=(1, 1), bias=False)
            (4): BatchNorm2d(256, eps=1e-05, momentum=0.1, affine=True, track_running_stats=True)
            (5): LeakyReLU(negative_slope=0.01, inplace=True)
            (6): Conv2d(256, 512, kernel_size=(1, 1), stride=(1, 1), bias=False)
            (7): BatchNorm2d(512, eps=1e-05, momentum=0.1, affine=True, track_running_stats=True)
          )
          (shortcut): Sequential(
            (0): Conv2d(256, 512, kernel_size=(1, 1), stride=(2, 2), bias=False)
            (1): BatchNorm2d(512, eps=1e-05, momentum=0.1, affine=True, track_running_stats=True)
          )
        )
        (1): BottleNeck(
          (residual_function): Sequential(
            (0): Conv2d(512, 256, kernel_size=(1, 1), stride=(1, 1), bias=False)
            (1): BatchNorm2d(256, eps=1e-05, momentum=0.1, affine=True, track_running_stats=True)
            (2): LeakyReLU(negative_slope=0.01, inplace=True)
            (3): Conv2d(256, 256, kernel_size=(3, 3), stride=(1, 1), padding=(1, 1), bias=False)
            (4): BatchNorm2d(256, eps=1e-05, momentum=0.1, affine=True, track_running_stats=True)
            (5): LeakyReLU(negative_slope=0.01, inplace=True)
            (6): Conv2d(256, 512, kernel_size=(1, 1), stride=(1, 1), bias=False)
            (7): BatchNorm2d(512, eps=1e-05, momentum=0.1, affine=True, track_running_stats=True)
          )
          (shortcut): Sequential()
        )
        (2): BottleNeck(
          (residual_function): Sequential(
            (0): Conv2d(512, 256, kernel_size=(1, 1), stride=(1, 1), bias=False)
            (1): BatchNorm2d(256, eps=1e-05, momentum=0.1, affine=True, track_running_stats=True)
            (2): LeakyReLU(negative_slope=0.01, inplace=True)
            (3): Conv2d(256, 256, kernel_size=(3, 3), stride=(1, 1), padding=(1, 1), bias=False)
            (4): BatchNorm2d(256, eps=1e-05, momentum=0.1, affine=True, track_running_stats=True)
            (5): LeakyReLU(negative_slope=0.01, inplace=True)
            (6): Conv2d(256, 512, kernel_size=(1, 1), stride=(1, 1), bias=False)
            (7): BatchNorm2d(512, eps=1e-05, momentum=0.1, affine=True, track_running_stats=True)
          )
          (shortcut): Sequential()
        )
        (3): BottleNeck(
          (residual_function): Sequential(
            (0): Conv2d(512, 256, kernel_size=(1, 1), stride=(1, 1), bias=False)
            (1): BatchNorm2d(256, eps=1e-05, momentum=0.1, affine=True, track_running_stats=True)
            (2): LeakyReLU(negative_slope=0.01, inplace=True)
            (3): Conv2d(256, 256, kernel_size=(3, 3), stride=(1, 1), padding=(1, 1), bias=False)
            (4): BatchNorm2d(256, eps=1e-05, momentum=0.1, affine=True, track_running_stats=True)
            (5): LeakyReLU(negative_slope=0.01, inplace=True)
            (6): Conv2d(256, 512, kernel_size=(1, 1), stride=(1, 1), bias=False)
            (7): BatchNorm2d(512, eps=1e-05, momentum=0.1, affine=True, track_running_stats=True)
          )
          (shortcut): Sequential()
        )
        (4): BottleNeck(
          (residual_function): Sequential(
            (0): Conv2d(512, 256, kernel_size=(1, 1), stride=(1, 1), bias=False)
            (1): BatchNorm2d(256, eps=1e-05, momentum=0.1, affine=True, track_running_stats=True)
            (2): LeakyReLU(negative_slope=0.01, inplace=True)
            (3): Conv2d(256, 256, kernel_size=(3, 3), stride=(1, 1), padding=(1, 1), bias=False)
            (4): BatchNorm2d(256, eps=1e-05, momentum=0.1, affine=True, track_running_stats=True)
            (5): LeakyReLU(negative_slope=0.01, inplace=True)
            (6): Conv2d(256, 512, kernel_size=(1, 1), stride=(1, 1), bias=False)
            (7): BatchNorm2d(512, eps=1e-05, momentum=0.1, affine=True, track_running_stats=True)
          )
          (shortcut): Sequential()
        )
        (5): BottleNeck(
          (residual_function): Sequential(
            (0): Conv2d(512, 256, kernel_size=(1, 1), stride=(1, 1), bias=False)
            (1): BatchNorm2d(256, eps=1e-05, momentum=0.1, affine=True, track_running_stats=True)
            (2): LeakyReLU(negative_slope=0.01, inplace=True)
            (3): Conv2d(256, 256, kernel_size=(3, 3), stride=(1, 1), padding=(1, 1), bias=False)
            (4): BatchNorm2d(256, eps=1e-05, momentum=0.1, affine=True, track_running_stats=True)
            (5): LeakyReLU(negative_slope=0.01, inplace=True)
            (6): Conv2d(256, 512, kernel_size=(1, 1), stride=(1, 1), bias=False)
            (7): BatchNorm2d(512, eps=1e-05, momentum=0.1, affine=True, track_running_stats=True)
          )
          (shortcut): Sequential()
        )
      )
      (6): Sequential(
        (0): BottleNeck(
          (residual_function): Sequential(
            (0): Conv2d(512, 512, kernel_size=(1, 1), stride=(1, 1), bias=False)
            (1): BatchNorm2d(512, eps=1e-05, momentum=0.1, affine=True, track_running_stats=True)
            (2): LeakyReLU(negative_slope=0.01, inplace=True)
            (3): Conv2d(512, 512, kernel_size=(3, 3), stride=(2, 2), padding=(1, 1), bias=False)
            (4): BatchNorm2d(512, eps=1e-05, momentum=0.1, affine=True, track_running_stats=True)
            (5): LeakyReLU(negative_slope=0.01, inplace=True)
            (6): Conv2d(512, 1024, kernel_size=(1, 1), stride=(1, 1), bias=False)
            (7): BatchNorm2d(1024, eps=1e-05, momentum=0.1, affine=True, track_running_stats=True)
          )
          (shortcut): Sequential(
            (0): Conv2d(512, 1024, kernel_size=(1, 1), stride=(2, 2), bias=False)
            (1): BatchNorm2d(1024, eps=1e-05, momentum=0.1, affine=True, track_running_stats=True)
          )
        )
        (1): BottleNeck(
          (residual_function): Sequential(
            (0): Conv2d(1024, 512, kernel_size=(1, 1), stride=(1, 1), bias=False)
            (1): BatchNorm2d(512, eps=1e-05, momentum=0.1, affine=True, track_running_stats=True)
            (2): LeakyReLU(negative_slope=0.01, inplace=True)
            (3): Conv2d(512, 512, kernel_size=(3, 3), stride=(1, 1), padding=(1, 1), bias=False)
            (4): BatchNorm2d(512, eps=1e-05, momentum=0.1, affine=True, track_running_stats=True)
            (5): LeakyReLU(negative_slope=0.01, inplace=True)
            (6): Conv2d(512, 1024, kernel_size=(1, 1), stride=(1, 1), bias=False)
            (7): BatchNorm2d(1024, eps=1e-05, momentum=0.1, affine=True, track_running_stats=True)
          )
          (shortcut): Sequential()
        )
        (2): BottleNeck(
          (residual_function): Sequential(
            (0): Conv2d(1024, 512, kernel_size=(1, 1), stride=(1, 1), bias=False)
            (1): BatchNorm2d(512, eps=1e-05, momentum=0.1, affine=True, track_running_stats=True)
            (2): LeakyReLU(negative_slope=0.01, inplace=True)
            (3): Conv2d(512, 512, kernel_size=(3, 3), stride=(1, 1), padding=(1, 1), bias=False)
            (4): BatchNorm2d(512, eps=1e-05, momentum=0.1, affine=True, track_running_stats=True)
            (5): LeakyReLU(negative_slope=0.01, inplace=True)
            (6): Conv2d(512, 1024, kernel_size=(1, 1), stride=(1, 1), bias=False)
            (7): BatchNorm2d(1024, eps=1e-05, momentum=0.1, affine=True, track_running_stats=True)
          )
          (shortcut): Sequential()
        )
      )
      (7): AdaptiveAvgPool2d(output_size=(1, 1))
    )
    (classifier): Sequential(
      (0): Dropout(p=0.417598542370663, inplace=False)
      (1): Linear(in_features=1024, out_features=1024, bias=False)
      (2): ReLU()
    )
    (fc): Sequential()
  )
  (heads): ModuleList(
    (0): Linear(in_features=1024, out_features=10, bias=True)
  )
)
| Epoch   1, lr=2.6e-02 time=  1.4s/  1.1s | Train: loss=1.406, TAw acc= 53.2% | Valid: time=  0.4s loss=1.117, TAw acc= 58.6% | *
| Epoch   2, lr=2.6e-02 time=  0.9s/  1.0s | Train: loss=1.271, TAw acc= 57.8% | Valid: time=  0.3s loss=0.870, TAw acc= 70.6% | *
| Epoch   3, lr=2.6e-02 time=  0.8s/  1.0s | Train: loss=1.232, TAw acc= 57.1% | Valid: time=  0.3s loss=0.844, TAw acc= 67.0% | *
…
| Epoch 293, lr=1.2e-05 time=  0.9s/  1.1s | Train: loss=0.843, TAw acc= 71.6% | Valid: time=  0.4s loss=0.558, TAw acc= 81.0% | lr=4.0e-06
------------------------------------------------------------------------------------------------------------
>>> Test on task  0 : loss=0.607 | TAw acc= 81.0%, forg=  0.0%| TAg acc= 81.0%, forg=  0.0% <<<
Save at ../RESULT_AAAI2025/CR10/0/cifar100_finetuning
************************************************************************************************************
Task  1
************************************************************************************************************
LLL_Net(
  (model): ResNet50_32(
    (features): Sequential(
      (0): Conv2d(3, 64, kernel_size=(3, 3), stride=(1, 1), padding=(1, 1), bias=False)
      (1): BatchNorm2d(64, eps=1e-05, momentum=0.1, affine=True, track_running_stats=True)
      (2): LeakyReLU(negative_slope=0.01, inplace=True)
      (3): Sequential(
        (0): BottleNeck(
          (residual_function): Sequential(
            (0): Conv2d(64, 64, kernel_size=(1, 1), stride=(1, 1), bias=False)
            (1): BatchNorm2d(64, eps=1e-05, momentum=0.1, affine=True, track_running_stats=True)
            (2): LeakyReLU(negative_slope=0.01, inplace=True)
            (3): Conv2d(64, 64, kernel_size=(3, 3), stride=(1, 1), padding=(1, 1), bias=False)
            (4): BatchNorm2d(64, eps=1e-05, momentum=0.1, affine=True, track_running_stats=True)
            (5): LeakyReLU(negative_slope=0.01, inplace=True)
            (6): Conv2d(64, 128, kernel_size=(1, 1), stride=(1, 1), bias=False)
            (7): BatchNorm2d(128, eps=1e-05, momentum=0.1, affine=True, track_running_stats=True)
          )
          (shortcut): Sequential(
            (0): Conv2d(64, 128, kernel_size=(1, 1), stride=(1, 1), bias=False)
            (1): BatchNorm2d(128, eps=1e-05, momentum=0.1, affine=True, track_running_stats=True)
          )
        )
        (1): BottleNeck(
          (residual_function): Sequential(
            (0): Conv2d(128, 64, kernel_size=(1, 1), stride=(1, 1), bias=False)
            (1): BatchNorm2d(64, eps=1e-05, momentum=0.1, affine=True, track_running_stats=True)
            (2): LeakyReLU(negative_slope=0.01, inplace=True)
            (3): Conv2d(64, 64, kernel_size=(3, 3), stride=(1, 1), padding=(1, 1), bias=False)
            (4): BatchNorm2d(64, eps=1e-05, momentum=0.1, affine=True, track_running_stats=True)
            (5): LeakyReLU(negative_slope=0.01, inplace=True)
            (6): Conv2d(64, 128, kernel_size=(1, 1), stride=(1, 1), bias=False)
            (7): BatchNorm2d(128, eps=1e-05, momentum=0.1, affine=True, track_running_stats=True)
          )
          (shortcut): Sequential()
        )
        (2): BottleNeck(
          (residual_function): Sequential(
            (0): Conv2d(128, 64, kernel_size=(1, 1), stride=(1, 1), bias=False)
            (1): BatchNorm2d(64, eps=1e-05, momentum=0.1, affine=True, track_running_stats=True)
            (2): LeakyReLU(negative_slope=0.01, inplace=True)
            (3): Conv2d(64, 64, kernel_size=(3, 3), stride=(1, 1), padding=(1, 1), bias=False)
            (4): BatchNorm2d(64, eps=1e-05, momentum=0.1, affine=True, track_running_stats=True)
            (5): LeakyReLU(negative_slope=0.01, inplace=True)
            (6): Conv2d(64, 128, kernel_size=(1, 1), stride=(1, 1), bias=False)
            (7): BatchNorm2d(128, eps=1e-05, momentum=0.1, affine=True, track_running_stats=True)
          )
          (shortcut): Sequential()
        )
      )
      (4): Sequential(
        (0): BottleNeck(
          (residual_function): Sequential(
            (0): Conv2d(128, 128, kernel_size=(1, 1), stride=(1, 1), bias=False)
            (1): BatchNorm2d(128, eps=1e-05, momentum=0.1, affine=True, track_running_stats=True)
            (2): LeakyReLU(negative_slope=0.01, inplace=True)
            (3): Conv2d(128, 128, kernel_size=(3, 3), stride=(2, 2), padding=(1, 1), bias=False)
            (4): BatchNorm2d(128, eps=1e-05, momentum=0.1, affine=True, track_running_stats=True)
            (5): LeakyReLU(negative_slope=0.01, inplace=True)
            (6): Conv2d(128, 256, kernel_size=(1, 1), stride=(1, 1), bias=False)
            (7): BatchNorm2d(256, eps=1e-05, momentum=0.1, affine=True, track_running_stats=True)
          )
          (shortcut): Sequential(
            (0): Conv2d(128, 256, kernel_size=(1, 1), stride=(2, 2), bias=False)
            (1): BatchNorm2d(256, eps=1e-05, momentum=0.1, affine=True, track_running_stats=True)
          )
        )
        (1): BottleNeck(
          (residual_function): Sequential(
            (0): Conv2d(256, 128, kernel_size=(1, 1), stride=(1, 1), bias=False)
            (1): BatchNorm2d(128, eps=1e-05, momentum=0.1, affine=True, track_running_stats=True)
            (2): LeakyReLU(negative_slope=0.01, inplace=True)
            (3): Conv2d(128, 128, kernel_size=(3, 3), stride=(1, 1), padding=(1, 1), bias=False)
            (4): BatchNorm2d(128, eps=1e-05, momentum=0.1, affine=True, track_running_stats=True)
            (5): LeakyReLU(negative_slope=0.01, inplace=True)
            (6): Conv2d(128, 256, kernel_size=(1, 1), stride=(1, 1), bias=False)
            (7): BatchNorm2d(256, eps=1e-05, momentum=0.1, affine=True, track_running_stats=True)
          )
          (shortcut): Sequential()
        )
        (2): BottleNeck(
          (residual_function): Sequential(
            (0): Conv2d(256, 128, kernel_size=(1, 1), stride=(1, 1), bias=False)
            (1): BatchNorm2d(128, eps=1e-05, momentum=0.1, affine=True, track_running_stats=True)
            (2): LeakyReLU(negative_slope=0.01, inplace=True)
            (3): Conv2d(128, 128, kernel_size=(3, 3), stride=(1, 1), padding=(1, 1), bias=False)
            (4): BatchNorm2d(128, eps=1e-05, momentum=0.1, affine=True, track_running_stats=True)
            (5): LeakyReLU(negative_slope=0.01, inplace=True)
            (6): Conv2d(128, 256, kernel_size=(1, 1), stride=(1, 1), bias=False)
            (7): BatchNorm2d(256, eps=1e-05, momentum=0.1, affine=True, track_running_stats=True)
          )
          (shortcut): Sequential()
        )
        (3): BottleNeck(
          (residual_function): Sequential(
            (0): Conv2d(256, 128, kernel_size=(1, 1), stride=(1, 1), bias=False)
            (1): BatchNorm2d(128, eps=1e-05, momentum=0.1, affine=True, track_running_stats=True)
            (2): LeakyReLU(negative_slope=0.01, inplace=True)
            (3): Conv2d(128, 128, kernel_size=(3, 3), stride=(1, 1), padding=(1, 1), bias=False)
            (4): BatchNorm2d(128, eps=1e-05, momentum=0.1, affine=True, track_running_stats=True)
            (5): LeakyReLU(negative_slope=0.01, inplace=True)
            (6): Conv2d(128, 256, kernel_size=(1, 1), stride=(1, 1), bias=False)
            (7): BatchNorm2d(256, eps=1e-05, momentum=0.1, affine=True, track_running_stats=True)
          )
          (shortcut): Sequential()
        )
      )
      (5): Sequential(
        (0): BottleNeck(
          (residual_function): Sequential(
            (0): Conv2d(256, 256, kernel_size=(1, 1), stride=(1, 1), bias=False)
            (1): BatchNorm2d(256, eps=1e-05, momentum=0.1, affine=True, track_running_stats=True)
            (2): LeakyReLU(negative_slope=0.01, inplace=True)
            (3): Conv2d(256, 256, kernel_size=(3, 3), stride=(2, 2), padding=(1, 1), bias=False)
            (4): BatchNorm2d(256, eps=1e-05, momentum=0.1, affine=True, track_running_stats=True)
            (5): LeakyReLU(negative_slope=0.01, inplace=True)
            (6): Conv2d(256, 512, kernel_size=(1, 1), stride=(1, 1), bias=False)
            (7): BatchNorm2d(512, eps=1e-05, momentum=0.1, affine=True, track_running_stats=True)
          )
          (shortcut): Sequential(
            (0): Conv2d(256, 512, kernel_size=(1, 1), stride=(2, 2), bias=False)
            (1): BatchNorm2d(512, eps=1e-05, momentum=0.1, affine=True, track_running_stats=True)
          )
        )
        (1): BottleNeck(
          (residual_function): Sequential(
            (0): Conv2d(512, 256, kernel_size=(1, 1), stride=(1, 1), bias=False)
            (1): BatchNorm2d(256, eps=1e-05, momentum=0.1, affine=True, track_running_stats=True)
            (2): LeakyReLU(negative_slope=0.01, inplace=True)
            (3): Conv2d(256, 256, kernel_size=(3, 3), stride=(1, 1), padding=(1, 1), bias=False)
            (4): BatchNorm2d(256, eps=1e-05, momentum=0.1, affine=True, track_running_stats=True)
            (5): LeakyReLU(negative_slope=0.01, inplace=True)
            (6): Conv2d(256, 512, kernel_size=(1, 1), stride=(1, 1), bias=False)
            (7): BatchNorm2d(512, eps=1e-05, momentum=0.1, affine=True, track_running_stats=True)
          )
          (shortcut): Sequential()
        )
        (2): BottleNeck(
          (residual_function): Sequential(
            (0): Conv2d(512, 256, kernel_size=(1, 1), stride=(1, 1), bias=False)
            (1): BatchNorm2d(256, eps=1e-05, momentum=0.1, affine=True, track_running_stats=True)
            (2): LeakyReLU(negative_slope=0.01, inplace=True)
            (3): Conv2d(256, 256, kernel_size=(3, 3), stride=(1, 1), padding=(1, 1), bias=False)
            (4): BatchNorm2d(256, eps=1e-05, momentum=0.1, affine=True, track_running_stats=True)
            (5): LeakyReLU(negative_slope=0.01, inplace=True)
            (6): Conv2d(256, 512, kernel_size=(1, 1), stride=(1, 1), bias=False)
            (7): BatchNorm2d(512, eps=1e-05, momentum=0.1, affine=True, track_running_stats=True)
          )
          (shortcut): Sequential()
        )
        (3): BottleNeck(
          (residual_function): Sequential(
            (0): Conv2d(512, 256, kernel_size=(1, 1), stride=(1, 1), bias=False)
            (1): BatchNorm2d(256, eps=1e-05, momentum=0.1, affine=True, track_running_stats=True)
            (2): LeakyReLU(negative_slope=0.01, inplace=True)
            (3): Conv2d(256, 256, kernel_size=(3, 3), stride=(1, 1), padding=(1, 1), bias=False)
            (4): BatchNorm2d(256, eps=1e-05, momentum=0.1, affine=True, track_running_stats=True)
            (5): LeakyReLU(negative_slope=0.01, inplace=True)
            (6): Conv2d(256, 512, kernel_size=(1, 1), stride=(1, 1), bias=False)
            (7): BatchNorm2d(512, eps=1e-05, momentum=0.1, affine=True, track_running_stats=True)
          )
          (shortcut): Sequential()
        )
        (4): BottleNeck(
          (residual_function): Sequential(
            (0): Conv2d(512, 256, kernel_size=(1, 1), stride=(1, 1), bias=False)
            (1): BatchNorm2d(256, eps=1e-05, momentum=0.1, affine=True, track_running_stats=True)
            (2): LeakyReLU(negative_slope=0.01, inplace=True)
            (3): Conv2d(256, 256, kernel_size=(3, 3), stride=(1, 1), padding=(1, 1), bias=False)
            (4): BatchNorm2d(256, eps=1e-05, momentum=0.1, affine=True, track_running_stats=True)
            (5): LeakyReLU(negative_slope=0.01, inplace=True)
            (6): Conv2d(256, 512, kernel_size=(1, 1), stride=(1, 1), bias=False)
            (7): BatchNorm2d(512, eps=1e-05, momentum=0.1, affine=True, track_running_stats=True)
          )
          (shortcut): Sequential()
        )
        (5): BottleNeck(
          (residual_function): Sequential(
            (0): Conv2d(512, 256, kernel_size=(1, 1), stride=(1, 1), bias=False)
            (1): BatchNorm2d(256, eps=1e-05, momentum=0.1, affine=True, track_running_stats=True)
            (2): LeakyReLU(negative_slope=0.01, inplace=True)
            (3): Conv2d(256, 256, kernel_size=(3, 3), stride=(1, 1), padding=(1, 1), bias=False)
            (4): BatchNorm2d(256, eps=1e-05, momentum=0.1, affine=True, track_running_stats=True)
            (5): LeakyReLU(negative_slope=0.01, inplace=True)
            (6): Conv2d(256, 512, kernel_size=(1, 1), stride=(1, 1), bias=False)
            (7): BatchNorm2d(512, eps=1e-05, momentum=0.1, affine=True, track_running_stats=True)
          )
          (shortcut): Sequential()
        )
      )
      (6): Sequential(
        (0): BottleNeck(
          (residual_function): Sequential(
            (0): Conv2d(512, 512, kernel_size=(1, 1), stride=(1, 1), bias=False)
            (1): BatchNorm2d(512, eps=1e-05, momentum=0.1, affine=True, track_running_stats=True)
            (2): LeakyReLU(negative_slope=0.01, inplace=True)
            (3): Conv2d(512, 512, kernel_size=(3, 3), stride=(2, 2), padding=(1, 1), bias=False)
            (4): BatchNorm2d(512, eps=1e-05, momentum=0.1, affine=True, track_running_stats=True)
            (5): LeakyReLU(negative_slope=0.01, inplace=True)
            (6): Conv2d(512, 1024, kernel_size=(1, 1), stride=(1, 1), bias=False)
            (7): BatchNorm2d(1024, eps=1e-05, momentum=0.1, affine=True, track_running_stats=True)
          )
          (shortcut): Sequential(
            (0): Conv2d(512, 1024, kernel_size=(1, 1), stride=(2, 2), bias=False)
            (1): BatchNorm2d(1024, eps=1e-05, momentum=0.1, affine=True, track_running_stats=True)
          )
        )
        (1): BottleNeck(
          (residual_function): Sequential(
            (0): Conv2d(1024, 512, kernel_size=(1, 1), stride=(1, 1), bias=False)
            (1): BatchNorm2d(512, eps=1e-05, momentum=0.1, affine=True, track_running_stats=True)
            (2): LeakyReLU(negative_slope=0.01, inplace=True)
            (3): Conv2d(512, 512, kernel_size=(3, 3), stride=(1, 1), padding=(1, 1), bias=False)
            (4): BatchNorm2d(512, eps=1e-05, momentum=0.1, affine=True, track_running_stats=True)
            (5): LeakyReLU(negative_slope=0.01, inplace=True)
            (6): Conv2d(512, 1024, kernel_size=(1, 1), stride=(1, 1), bias=False)
            (7): BatchNorm2d(1024, eps=1e-05, momentum=0.1, affine=True, track_running_stats=True)
          )
          (shortcut): Sequential()
        )
        (2): BottleNeck(
          (residual_function): Sequential(
            (0): Conv2d(1024, 512, kernel_size=(1, 1), stride=(1, 1), bias=False)
            (1): BatchNorm2d(512, eps=1e-05, momentum=0.1, affine=True, track_running_stats=True)
            (2): LeakyReLU(negative_slope=0.01, inplace=True)
            (3): Conv2d(512, 512, kernel_size=(3, 3), stride=(1, 1), padding=(1, 1), bias=False)
            (4): BatchNorm2d(512, eps=1e-05, momentum=0.1, affine=True, track_running_stats=True)
            (5): LeakyReLU(negative_slope=0.01, inplace=True)
            (6): Conv2d(512, 1024, kernel_size=(1, 1), stride=(1, 1), bias=False)
            (7): BatchNorm2d(1024, eps=1e-05, momentum=0.1, affine=True, track_running_stats=True)
          )
          (shortcut): Sequential()
        )
      )
      (7): AdaptiveAvgPool2d(output_size=(1, 1))
    )
    (classifier): Sequential(
      (0): Dropout(p=0.417598542370663, inplace=False)
      (1): Linear(in_features=1024, out_features=1024, bias=False)
      (2): ReLU()
    )
    (fc): Sequential()
  )
  (heads): ModuleList(
    (0-1): 2 x Linear(in_features=1024, out_features=10, bias=True)
  )
)
| Epoch   1, lr=2.6e-02 time=  0.9s/  1.1s | Train: loss=1.438, TAw acc= 50.0% | Valid: time=  0.3s loss=1.170, TAw acc= 58.6% | *
| Epoch   2, lr=2.6e-02 time=  0.9s/  1.1s | Train: loss=1.382, TAw acc= 51.6% | Valid: time=  0.4s loss=1.194, TAw acc= 61.6% |
…
